model/keypoint_classifier/keypoint_classifier.tflite (tflite, 6644 bytes, 6 tensors)

arith.constant f4 [6, 10]
0	0x3f505c82	0.81391156
1	0xbe08a892	-0.13345554
2	0x3eac3497	0.33633873
3	0x3ed78ee9	0.4210122
4	0xbdba7f65	-0.0910633
5	0xbee8efc5	-0.4549543
6	0xbf02e4c7	-0.51130337
7	0x3f693fca	0.9111296
8	0xbf71a636	-0.9439424
9	0x3e5b0601	0.21389009
10	0xbf3d054a	-0.73836195
11	0xbe0c8d5f	-0.13725804
12	0x3daa8c56	0.08327548
13	0xbf8e75b1	-1.1129667
14	0x3f1694ae	0.5882062
15	0xbf792687	-0.97324413
16	0xbe2d4476	-0.16920647
17	0xbea7a427	-0.32742426
18	0x3f1b6957	0.6070761
19	0xbf117842	-0.56824124
20	0xbf572f05	-0.8405612
21	0x3ebeb620	0.37248325
22	0xbf808326	-1.0040023
23	0x3d51cd61	0.051221255
24	0x3edb72c7	0.42861006
25	0x3f9d4132	1.2285521
26	0xbf1851f0	-0.59500027
27	0x3cf5cf1a	0.03000598
28	0xbe1dcdbe	-0.15410516
29	0xbf3e4e6c	-0.7433841
30	0xbfaa6d5f	-1.3314627
31	0xbfcee682	-1.6164095
32	0x3dac4ed4	0.08413473
33	0x3f5e657e	0.86873615
34	0xbd25f009	-0.04051212
35	0x3f31556e	0.6927098
36	0x3f5fd1b3	0.8742935
37	0xbf8fe565	-1.1241881
38	0xbfc05533	-1.5026001
39	0x3f6228b9	0.8834339
40	0xbefd8fa9	-0.49523667
41	0x3f2153c9	0.6301847
42	0x3cc844f0	0.024446934
43	0xbecc29a4	-0.3987552
44	0xbf2e3e53	-0.6806385
45	0xbf3212c7	-0.695599
46	0xbe2e4490	-0.17018342
47	0xbf436430	-0.7632475
48	0xbef094fa	-0.4698866
49	0x3edb7d94	0.42869246
50	0x3f93d00b	1.1547865
51	0xbf8dcb81	-1.107773
52	0xbef519ef	-0.47871348
53	0x3ee24d83	0.44199762
54	0xbf535c9b	-0.8256318
55	0xbf0d2dad	-0.5514782
56	0xbf446bd7	-0.7672705
57	0xbefb8b1e	-0.49129575
58	0x3edc6075	0.4304234
59	0x3e41c8f5	0.18924315

arith.constant1 f4 [10, 20]
0	0xbf3c5338	-0.7356448
1	0x3d4eeb93	0.05051763
2	0x3e8884f8	0.26663947
3	0x3d74b556	0.059743248
4	0x3d101208	0.035173446
5	0xbda83603	-0.08213427
6	0x3f3c0150	0.734395
7	0x3f3d22d9	0.738813
8	0xbe1c81e2	-0.15283921
9	0xbf22c238	-0.63577604
10	0xbbc1a53e	-0.005909591
11	0xbd0245ce	-0.031804852
12	0xbe4acc9b	-0.19804613
13	0x3e575ec5	0.21032245
14	0x3f1ba420	0.6079731
15	0xbe375e25	-0.17907007
16	0xbefe1616	-0.49626225
17	0xbda8a430	-0.08234441
18	0x3cd369bc	0.025807254
19	0x3d2fb21c	0.042894468
20	0xbd7050b6	-0.058670722
21	0xbf0fd238	-0.56180143
22	0xbd8f4368	-0.069952786
23	0xbd62115f	-0.055192348
24	0x3da536b2	0.08067073
25	0x3eb812b2	0.35951763
26	0xbf324cc1	-0.6964837
27	0x3e5af6df	0.21383236
28	0x3f6e896d	0.93178445
29	0xbd581601	-0.05275536
30	0x3e83643c	0.2566241
31	0xbf08ff12	-0.53514206
32	0x3f90302a	1.1264699
33	0xbee0b450	-0.43887568
34	0xbe8d58e1	-0.27606872
35	0x3e864e66	0.26231688
36	0x3e80fc60	0.25192547
37	0xbe335f4c	-0.17516822
38	0xbd0e7ff9	-0.034790013
39	0x3f17519e	0.5910891
40	0x3ec74fad	0.38927975
41	0x3fc568f7	1.5422658
42	0xbe7b2017	-0.2452396
43	0x3ede0bf4	0.43368495
44	0x3f449963	0.7679655
45	0x3e8e03d6	0.27737302
46	0x3f1eae33	0.61984557
47	0x3deca8f4	0.11555663
48	0x3d2569da	0.04038415
49	0x3f679bcb	0.90472096
50	0x3f0807e1	0.5313702
51	0x3ef3e66d	0.47636738
52	0x3ee80afb	0.45320877
53	0x3f14afe9	0.5808092
54	0x3f4f3fce	0.80956733
55	0x3f15bb9e	0.58489406
56	0x3e62d39d	0.22151037
57	0xbdb03376	-0.086035654
58	0x3f9614c9	1.1725093
59	0xbd336094	-0.043793276
60	0xbefda3e6	-0.49539107
61	0xbc7cda85	-0.0154329585
62	0xbe7c6247	-0.24646865
63	0xbe426b7c	-0.18986315
64	0x3f35c5fb	0.7100522
65	0xbb1a77a0	-0.0023569837
66	0x3eecabf6	0.46224946
67	0xbe35118b	-0.17682473
68	0xbeb6388d	-0.3559002
69	0xbe5d167d	-0.2159061
70	0x3e05b35c	0.13056701
71	0x3bf909cd	0.0076000453
72	0x3c1c7aaa	0.00955073
73	0xbe2bfbe6	-0.1679531
74	0x3c9fc766	0.01950426
75	0xbde09204	-0.1096535
76	0x3de481fb	0.11157604
77	0xbe4948af	-0.19656633
78	0xbf02bd02	-0.51069653
79	0xbec1c04c	-0.37842023
80	0xbeda7263	-0.42665395
81	0xbeb8f153	-0.36121616
82	0x3dcceb8b	0.10005864
83	0x3e35f11d	0.17767759
84	0x3ecd1a38	0.40059066
85	0x3db863ce	0.09003411
86	0xbe82083e	-0.25396913
87	0x3f0f9aad	0.5609539
88	0x3ed288a1	0.41119865
89	0xbe453864	-0.19259793
90	0x3f3cb97a	0.73720515
91	0xbdb3b1b9	-0.08774132
92	0xbe0cf997	-0.13767086
93	0x3c828a82	0.015935186
94	0xbed8a97b	-0.42316803
95	0x3f5e5090	0.8684168
96	0x3d92ed5f	0.07174181
97	0x3f2f6680	0.6851578
98	0x3d8a4448	0.06751305
99	0x3e7e3572	0.24825075
100	0xbf2f0297	-0.68363327
101	0xbf058bac	-0.5216625
102	0xbe09d4ba	-0.13460055
103	0xbeb6dbce	-0.35714573
104	0xbf858640	-1.0431595
105	0xbc6a102c	-0.014286082
106	0xbf862208	-1.0479136
107	0x3e0a8d66	0.13530502
108	0x3dfa3e41	0.12218905
109	0xbf822b36	-1.0169437
110	0x3e253608	0.16133893
111	0xbed3792d	-0.41303387
112	0x3e842a5b	0.25813565
113	0xbf2f9691	-0.6858912
114	0xbf0f10dc	-0.558851
115	0xbf01c5ce	-0.5069245
116	0xbcff02fb	-0.03112935
117	0xbe87aada	-0.26497537
118	0xbe6789cf	-0.22611164
119	0x3eaac297	0.33351585
120	0x3eefe4dd	0.46854296
121	0x3e91f991	0.28510717
122	0xbf1b6496	-0.60700357
123	0xbfa313ec	-1.2740455
124	0x3e969304	0.2940904
125	0xbfaa873f	-1.3322524
126	0xbf19a0d0	-0.60011005
127	0xbea35c13	-0.31906185
128	0xbc81ffad	-0.015868986
129	0x3f0e616b	0.556174
130	0xbf6b386e	-0.9188298
131	0xbf1c1b91	-0.60979563
132	0xbf396ad6	-0.72428644
133	0xbe23f1e1	-0.16010238
134	0xbf192460	-0.5982113
135	0xbea79fec	-0.32739198
136	0xbe1d6554	-0.15370685
137	0x3f04e991	0.51918894
138	0x3e4b136f	0.19831632
139	0x3e8193fb	0.25308213
140	0x3f0efa87	0.55851024
141	0x3ed84cf4	0.4224621
142	0xbe2321c5	-0.15930851
143	0xbe85fc1b	-0.26168904
144	0x3dbd7111	0.09250081
145	0x3e8e6735	0.27813116
146	0x3e95abd7	0.29232666
147	0x3e3278f8	0.17428958
148	0xbdc3dff9	-0.09564204
149	0x3dcd136a	0.100134686
150	0x3f334fd3	0.7004368
151	0x3f00e5d5	0.50350696
152	0x3f05def8	0.5229335
153	0xbf0f8f12	-0.5607768
154	0x3ebea57d	0.37235633
155	0xbec6d7c2	-0.38836485
156	0x3f80a50f	1.0050372
157	0xbf1fc6b8	-0.62412596
158	0x3d21b290	0.03947693
159	0xbebf0733	-0.3731018
160	0xbe927331	-0.2860351
161	0x3d1271ae	0.035752945
162	0x3fb30080	1.3984528
163	0x3f4fdf15	0.8119977
164	0xbd1d13b0	-0.038348854
165	0x3ea1e906	0.31623095
166	0x3e807bb2	0.25094372
167	0x3e675442	0.22590736
168	0x3f142b47	0.57878536
169	0xbe16b5cd	-0.14717789
170	0x3ef58cda	0.47959024
171	0x3ebbfd72	0.367168
172	0x3e0a5fa0	0.1351304
173	0x3f9d902b	1.2309622
174	0x3e750777	0.23928629
175	0x3f9c7f52	1.2226355
176	0xbe177003	-0.14788823
177	0x3e826059	0.25464132
178	0xbca51a35	-0.020154098
179	0x3f8e0dfe	1.109802
180	0x3ed455e1	0.4147177
181	0x3e840054	0.257815
182	0xbf00544e	-0.5012864
183	0x3c9e0211	0.019288095
184	0x3e3fdafa	0.18735877
185	0x3d9c92d4	0.07645193
186	0xbe0a0002	-0.13476565
187	0x3ed348ea	0.41266567
188	0xbe8a7637	-0.27043316
189	0xbedebc3d	-0.4350299
190	0xbe145048	-0.1448375
191	0xbe62c6e0	-0.22146177
192	0xbd47fda3	-0.04882587
193	0xbe27b97a	-0.16379347
194	0xbf1805e1	-0.5938397
195	0xbe92c1dc	-0.28663528
196	0xbe87f74b	-0.26555857
197	0x3e98c529	0.2983792
198	0x3f27b763	0.655142
199	0xbe2a9449	-0.16658129

arith.constant2 f4 [6]
0	0xbd44f934	-0.04808922
1	0x3d9b44ce	0.07581483
2	0x3f0502c5	0.5195735
3	0x3ec23c69	0.37936714
4	0xbf306ba3	-0.6891424
5	0xbf030af0	-0.51188564

arith.constant3 f4 [10]
0	0xbeca4846	-0.39508265
1	0x3f198ad8	0.59977484
2	0xbe0fb32d	-0.14033194
3	0xbdf10c63	-0.11769941
4	0x3f61d0ee	0.88209426
5	0x3f428224	0.7597983
6	0x3f010c6b	0.50409573
7	0x3f19b4f8	0.6004176
8	0x3ecb22d6	0.39675015
9	0xbdbc624c	-0.09198436

sequential_4_1/dense_12_1/Add/ReadVariableOp f4 [20]
0	0xbeb33cfc	-0.35007465
1	0xbedc2462	-0.42996508
2	0xbf3dd7ad	-0.7415722
3	0xbf5628ed	-0.836562
4	0xbee23ef6	-0.4418866
5	0xbe19344c	-0.14961356
6	0xbf07b489	-0.5300985
7	0x3eb46cfc	0.35239398
8	0xbed800c1	-0.42188075
9	0xbf3f82d8	-0.74809027
10	0x3f0c292c	0.54750323
11	0xbf3a30d7	-0.72730774
12	0x3d394514	0.045231894
13	0xbf821545	-1.0162741
14	0xbed06863	-0.4070464
15	0xbf541743	-0.82847995
16	0xbebc51fb	-0.36781296
17	0xbf1dd3d0	-0.61651325
18	0xbf0df1d0	-0.554471
19	0xbf0ed518	-0.55793905

sequential_4_1/dense_12_1/MatMul f4 [20, 42]
0	0xbd98813c	-0.074465245
1	0x3e539004	0.20660406
2	0x3d39e35d	0.045382846
3	0x3e33b416	0.17549166
4	0xbe2b91e1	-0.16754867
5	0x3d8843ba	0.06653543
6	0xbed8a3e9	-0.42312554
7	0x3cbbe76d	0.0229375
8	0xbf103f87	-0.56346935
9	0x3daa1ca4	0.08306244
10	0x3db37194	0.08761898
11	0x3e2a7785	0.16647156
12	0x3d2c5de5	0.042081732
13	0x3e0b2684	0.13588911
14	0xbcb9c03e	-0.022674676
15	0xbd5cf550	-0.053944886
16	0xbc0fcb6d	-0.008776528
17	0xbe0d2e4f	-0.13787197
18	0x3d5897a3	0.052878987
19	0x3e918d88	0.28428292
20	0x3d721347	0.059100416
21	0x3d82725b	0.06369468
22	0x3e7beef4	0.24602872
23	0xbe65901b	-0.22418253
24	0x3ec18521	0.37796882
25	0xbd92ad75	-0.071619906
26	0xbc2d32bb	-0.010571177
27	0x3e798c8f	0.24370025
28	0xbd74779c	-0.05968438
29	0x3ceceeb3	0.028922414
30	0x3eaeade8	0.34117055
31	0xbc669dda	-0.014075721
32	0x3f2f5950	0.68495655
33	0xbee4680e	-0.44610637
34	0xbe585366	-0.21125564
35	0x3e8e432d	0.27785626
36	0xbe1ee71c	-0.15517849
37	0x3d892900	0.06697273
38	0x3c47dd00	0.012198687
39	0x3d7942a2	0.06085456
40	0x3f0f69a1	0.5602055
41	0xbf06eda0	-0.52706337
42	0x3e5eb244	0.2174769
43	0x3e2bb926	0.16769847
44	0x3e813ecb	0.2524322
45	0x3f09dc01	0.53851324
46	0x3df69440	0.12039995
47	0x3e95095d	0.29108706
48	0x3e94783c	0.28997982
49	0x3e395a2f	0.18100809
50	0x3f15a0b1	0.5844832
51	0x3ea2d5d8	0.31803775
52	0xbdb42e78	-0.08797926
53	0xbc3e9800	-0.011632919
54	0xbd81d9ac	-0.06340346
55	0x3d8d1a6d	0.06889806
56	0xbd26c3c3	-0.040714037
57	0x3a5a8116	0.00083352753
58	0xbcea2870	-0.028583735
59	0xbd56272d	-0.052283455
60	0x3d7f4ae9	0.0623273
61	0x3c4bb491	0.012433187
62	0x3d269623	0.040670525
63	0x3da90b4a	0.08254106
64	0xbddfd8a9	-0.109299965
65	0xbe8f80b9	-0.28027895
66	0xbe9f74b0	-0.31143713
67	0xbec7ae72	-0.3900028
68	0x3e681688	0.22664845
69	0xbca0a40d	-0.019609476
70	0xbdb64533	-0.088999175
71	0x3df5b519	0.11997432
72	0xbeb04a4d	-0.34431687
73	0xbdd5201d	-0.10406516
74	0xbe7feaa4	-0.24991852
75	0xbf415060	-0.7551327
76	0x3eb62272	0.35573155
77	0x3da06c72	0.07833184
78	0xbc0ba563	-0.008523318
79	0x3e203155	0.15643819
80	0xbebbffa7	-0.36718485
81	0xbd38a5c1	-0.04507995
82	0xbedabaf3	-0.42720756
83	0xbdce4bcd	-0.100730516
84	0xbdec414a	-0.115358904
85	0x3d726518	0.05917844
86	0xbe017651	-0.1264279
87	0x3e9732c5	0.29530922
88	0xbd6d7f7f	-0.057982918
89	0x3ddfbde3	0.1092489
90	0xbe04fb4b	-0.12986486
91	0xbeacf3d2	-0.3377977
92	0xbd2478e3	-0.04015435
93	0xbea98a0a	-0.33113128
94	0xbf0d870a	-0.5528418
95	0xbd97b161	-0.07406879
96	0xbcd42b60	-0.025899589
97	0xbdc3663f	-0.09540986
98	0x3e8246ae	0.2544455
99	0x3d31f750	0.043448746
100	0x3e8f8743	0.28032884
101	0x3d87df27	0.0663436
102	0xbf2f0708	-0.68370104
103	0xbe4e1440	-0.20124912
104	0xbe12374b	-0.14278905
105	0xbdce7a29	-0.10081894
106	0x3e6e9855	0.23300298
107	0x3d87d12f	0.066316955
108	0x3e305c98	0.17222822
109	0x3dd30383	0.10303404
110	0xbf24482a	-0.64172614
111	0xbddebed4	-0.10876241
112	0xbdb79abb	-0.08965059
113	0xbe05b883	-0.13058667
114	0x3e5b7f64	0.21435314
115	0x3d95ea4f	0.073200814
116	0x3e429cee	0.19005176
117	0x3dbca432	0.09211005
118	0xbf5a00eb	-0.8515765
119	0xbebb7905	-0.36615768
120	0xbdc53ccd	-0.096307375
121	0xbe44b653	-0.19210176
122	0x3dfe46ec	0.12415871
123	0x3d96a73c	0.07356116
124	0x3e093e8c	0.13402766
125	0x3defd7fc	0.117111176
126	0xbd2626d0	-0.04056436
127	0x3e837094	0.25671828
128	0x3f39a826	0.725222
129	0xbf6558c2	-0.8958856
130	0x3ed10c6d	0.40829793
131	0xbed2a017	-0.41137764
132	0x3ebb8319	0.36623457
133	0xbea24ddb	-0.31700024
134	0x3e223128	0.15839064
135	0xbeb245ea	-0.34818965
136	0x3ed12d70	0.4085498
137	0xbe15b028	-0.1461798
138	0x3c856bf6	0.016286831
139	0x3c16faf9	0.00921511
140	0xbe973a3d	-0.2953662
141	0x3e320a39	0.17386712
142	0xbebd3406	-0.36953753
143	0x3e6c13d7	0.23054443
144	0x3eb9606a	0.3620637
145	0xbd5a4c72	-0.05329556
146	0x3df0b8e7	0.11754017
147	0xbe0a6f2c	-0.13518971
148	0xbb9ce2d0	-0.0047877803
149	0x3db38905	0.08766369
150	0xbdd970f2	-0.10617246
151	0x3e18069c	0.14846271
152	0x3ea899ea	0.32929927
153	0xbe8dbaf3	-0.27681693
154	0x3d2bb2d8	0.041918606
155	0xbdfc2af0	-0.12312877
156	0xbd935275	-0.07193462
157	0x3dce446e	0.10071646
158	0xbc2c0af6	-0.01050066
159	0x3e152286	0.14563951
160	0x3e86ee4f	0.2635369
161	0xbed19363	-0.4093276
162	0x3e32db38	0.17466438
163	0xbe8fcd73	-0.28086433
164	0x3d2e76d5	0.042593796
165	0x3d8ce10b	0.06878861
166	0xbd1f77e3	-0.038932692
167	0x3ddb5586	0.10709672
168	0x3e19df20	0.15026522
169	0x3e3171f4	0.17328626
170	0xbe6ca892	-0.2311118
171	0x3e762e3c	0.24041075
172	0xbde018ae	-0.10942207
173	0x3e868409	0.2627261
174	0xbe8297be	-0.25506395
175	0x3d94fa41	0.07274295
176	0xbec297ee	-0.38006538
177	0x3e387b34	0.18015748
178	0x3e088598	0.13332212
179	0x3e3b26a7	0.18276463
180	0x3db3d650	0.08781111
181	0x3dcfb8a3	0.101426385
182	0x3d206fc5	0.03916909
183	0x3e220a04	0.15824133
184	0x3c7c057b	0.015382166
185	0x3e3e25aa	0.18569055
186	0x3d67fc58	0.056637138
187	0x3d943fd1	0.072387345
188	0x3e043ffa	0.1291503
189	0x3db0ef7d	0.08639429
190	0x3e27372a	0.16329637
191	0xbd69e1ad	-0.057099987
192	0x3be50fa1	0.0069903885
193	0xbf44ede0	-0.7692547
194	0x3d2e9c2d	0.04262941
195	0x3d6f395d	0.058404315
196	0x3bb251dc	0.0054418873
197	0x3c97df10	0.018538982
198	0x3e49e50a	0.19716278
199	0xbf03bfa8	-0.5146432
200	0x3dfb69c9	0.12276036
201	0xbf36964e	-0.71323097
202	0xbdd7a2ed	-0.105291225
203	0x3cafb6b6	0.021449428
204	0xbcea9f46	-0.0286404
205	0x3c9a73a7	0.018853975
206	0x3d6fdb87	0.058558967
207	0xbea624c1	-0.32449916
208	0x3d2381b7	0.039918628
209	0xbf14ccce	-0.5812501
210	0x3d190538	0.037358493
211	0xbdaaf23a	-0.08346982
212	0x3eda4f97	0.42638847
213	0xbe86571e	-0.2623834
214	0x3ec8c7bd	0.39214888
215	0xbeadd595	-0.33952013
216	0x3ee16f13	0.44030055
217	0xbe846b4c	-0.2586311
218	0x3edc0c7e	0.4297828
219	0xbd9c4437	-0.076301984
220	0x3e8f89e0	0.28034878
221	0xbe1c1133	-0.15240936
222	0x3e10a490	0.14125276
223	0xbea77d35	-0.32712713
224	0xbdacb6bc	-0.08433291
225	0xbe972eda	-0.29527932
226	0x3d8e8aed	0.06960092
227	0xbe0beb8d	-0.13664074
228	0x3e93689a	0.28790742
229	0xbe65c9d2	-0.2244027
230	0xbb19e4f3	-0.0023482412
231	0xbd837af3	-0.06419935
232	0x3d37a2bc	0.04483293
233	0xbde2f184	-0.11081222
234	0x3db09ca2	0.08623625
235	0xbc177715	-0.0092447
236	0x3d961f83	0.07330229
237	0xbcdea04e	-0.027176049
238	0xbd91a320	-0.07111192
239	0x3c6fe1db	0.0146412505
240	0xbc97e850	-0.018543392
241	0x3d2eaff9	0.04264829
242	0xbe139975	-0.14414008
243	0x3cb5c0ad	0.022186602
244	0x3ea1d11e	0.31604856
245	0x3ceabac5	0.028653512
246	0xbe218705	-0.15774162
247	0x3d272b61	0.040812854
248	0xbc99fd50	-0.018797547
249	0x3e193811	0.14962794
250	0xbe330d90	-0.17485642
251	0x3de89e07	0.11358266
252	0x3e6fee60	0.23430777
253	0x3e8fd16c	0.28089464
254	0x3c822b38	0.015889749
255	0xbe263467	-0.16230927
